DL_HW_1/multitask_model.pth (torch, 77377 bytes, 19 tensors)

body.0.weight f4 [128, 31]
000000 95 12 e8 3d 48 9e 2a 3d ed cf 02 be 54 d5 bd 3b
       0.11331669 0.041654855 -0.1277463 0.005793253
000010 4e 62 76 bd 75 4d 87 3d 82 3b 35 be 5b e6 83 bd
       -0.060152344 0.06606571 -0.17698482 -0.06440421
000020 55 71 4f be 47 df 55 3d 3e 38 c9 bd 48 ef 4d 3d
       -0.20258076 0.052214887 -0.098251805 0.050277025
000030 65 82 da 3d 68 31 f2 bd 3a e0 85 3d d2 15 f4 bd
       0.10669402 -0.1182583 0.065369084 -0.119182244
000040 0e 33 d9 3d 13 e7 5e 3d 28 fb 01 be f6 bf a3 3d
       0.10605441 0.05441959 -0.12693465 0.07995598
000050 17 70 ff 3d 76 ad bf 3d f7 aa 38 be 4a da f2 bd
       0.12472551 0.09359257 -0.18033968 -0.118580416
000060 e2 16 93 3d 6e cd ba bc 01 bf cb bc f0 f3 50 3c
       0.07182099 -0.022803035 -0.024871351 0.012753472
000070 43 55 62 3e 41 ff 61 be 43 f4 05 3d 32 61 bd bd
       0.22102837 -0.22070028 0.03270365 -0.09247054
000080 a7 7a 69 bd 9b 5d 6b be b5 d3 de 3d ec 18 00 be
       -0.057001736 -0.22984926 0.10880224 -0.12509507
000090 7f 84 36 3e 65 d7 e1 3b 25 93 d5 bd 52 35 f5 ba
       0.17823981 0.006892132 -0.10428456 -0.0018707907
0000a0 37 50 6d 3d 8d 55 c1 bd fa 8b 01 3e 89 b3 03 3e
       0.057937827 -0.09440146 0.12651053 0.12861456
0000b0 7d f3 43 bd c3 52 3a 3d 46 22 84 bd 6e a3 f8 bd
       -0.04783963 0.045489084 -0.0645185 -0.12140547
0000c0 63 16 6b bc 14 55 87 bc 39 8f b0 3c dc 1e 3f 3e
       -0.014348599 -0.01652006 0.021552669 0.18664116
0000d0 15 98 39 be f8 85 04 3e b5 62 75 bc ae 60 00 be
       -0.18124421 0.1294173 -0.014977147 -0.1253688
0000e0 e3 bf 00 be f4 88 40 3e b8 9b 8d 3d 90 a7 3f be
       -0.12573199 0.18802243 0.069144666 -0.18716264
0000f0 c3 ca 45 3e ea b9 04 be 86 e3 32 3d 82 33 c4 3d
       0.19315629 -0.12961546 0.043674015 0.09580137
000100 92 67 05 be 4d 57 d2 bc 60 ea 08 3e 57 ab 6f be
       -0.1302779 -0.025676394 0.13370657 -0.23405205
000110 8e ee 1a 3e 38 ea 84 bc 63 c1 0c 3d a9 2c a9 3c
       0.15130064 -0.016224965 0.034364115 0.020651178
000120 9d c1 0f 3e 4d fd 09 3e 85 a8 83 bc 73 6c 15 be
       0.14038701 0.13475533 -0.016071567 -0.14592151
000130 0f e2 e7 3d 98 23 24 3e 3b 35 0d b8 2a 68 99 3d
       0.11322414 0.16029203 -3.3666594e-05 0.07490571
000140 4d af 69 3d 0b 8e 78 bd c7 3e 72 bc 40 8b ff bd
       0.057051945 -0.060682338 -0.014785475 -0.12477732
000150 84 05 04 3e 99 60 01 3d bb 57 5e 3c 26 b7 fd bd
       0.12892729 0.031586263 0.013570721 -0.123884484
000160 57 71 24 3e 36 f4 1a bc 82 1c a4 bd 7a 36 a3 bc
       0.1605886 -0.0094576385 -0.0801325 -0.019923437
000170 56 32 dd bd e9 6e a2 3d b1 27 23 3e 03 d7 be 3d
       -0.108006164 0.07931311 0.1593311 0.09318354
000180 5e a1 c3 bc bc b2 20 3d 06 f5 1b be 0a 36 b5 3c
       -0.023880657 0.039232954 -0.15230188 0.022120494
000190 e1 17 c4 bd bf 0a 92 3d a1 c9 6c 3d 72 c6 b2 3d
       -0.09574867 0.07130956 0.057809476 0.08729257
0001a0 14 a3 1e 3c 40 70 f1 bd a0 dd b0 bd c7 fe b1 bd
       0.009682436 -0.11788988 -0.086360216 -0.08691173
0001b0 6e 7e a6 bc 72 41 0f be 34 7d f7 bd c1 26 16 3e
       -0.020323958 -0.13989809 -0.120844275 0.14663221
0001c0 fa ea 6b bd 2e 96 2c 3e f7 60 04 3e 39 4e 23 3e
       -0.057597138 0.16854164 0.12927614 0.15947808
0001d0 bd b5 3b 3c d3 52 1b be 80 ca c6 bd b9 05 4d be
       0.011456904 -0.15168314 -0.097065926 -0.20021714
0001e0 c5 75 43 3d d0 d0 d2 bd a5 14 5e 3e c8 2a 09 be
       0.047719736 -0.10293734 0.21687563 -0.13395226
0001f0 15 dc 16 3e 5f 88 11 be 31 bc 59 3d 35 79 0e 3d
       0.14732392 -0.14212178 0.05315799 0.03478356
000200 fb f1 68 bd 60 8b 26 be ba 52 f3 3c 74 15 06 3e
       -0.056871396 -0.16264105 0.029702533 0.13094121
000210 49 3c 01 be 65 ac 17 3e a6 90 1a 3d 5b ad 4e 3c
       -0.12620653 0.14811857 0.037735604 0.012614573
000220 da 00 50 3d 5b d9 26 bd ff 4f 33 be 99 2a 35 3d
       0.050782062 -0.04073463 -0.17510985 0.044230077
000230 ff b9 78 3d aa 62 c4 bd 82 fb 10 be 41 f4 3d bd
       0.060724255 -0.09589131 -0.14158443 -0.046375517
000240 d4 8e f0 3d e8 78 57 bc 72 1d 2d be c3 b7 21 3e
       0.11745992 -0.013151385 -0.16905764 0.15792756
000250 80 57 94 bd 1a f2 40 be 82 ed 95 bc b0 19 18 be
       -0.07243252 -0.18842354 -0.01830173 -0.14853549
000260 07 ae ef bd cb 9c 95 bc 7d 83 0f 3d db 83 a7 3d
       -0.11703115 -0.018263241 0.035037506 0.08179446
000270 6b 75 a4 bc fd da 16 3e 7e d5 86 3d 1c 9d de 3d
       -0.02007552 0.14731975 0.06583689 0.1086981
000280 d1 23 3b bd 77 50 10 be 76 75 19 3e 65 8a 2b bd
       -0.045688454 -0.14093195 0.14986214 -0.04188003
000290 d2 9e b5 bd 90 b4 a5 bc 83 ca 57 bb bc 9b 51 bc
       -0.08868183 -0.0202277 -0.0032927103 -0.012793478
0002a0 0b f7 db 3d 84 d3 c3 3b 01 f7 e4 bc 2e d4 b8 3d
       0.10740479 0.0059761424 -0.027949812 0.09024845
0002b0 ac 95 30 be 0c b1 5d 3e 8f 45 ec 3c 48 67 d3 bd
       -0.17244595 0.2164957 0.028841762 -0.10322434
0002c0 f8 ea 7d 3d fb 10 2f 3e 8e 12 28 be fe 01 01 3e
       0.06199166 0.17096321 -0.16413328 0.12598416
0002d0 8c 3a fc 3d 0c a3 0b 3c 9b 9a c9 3b f6 e4 b6 3c
       0.123158544 0.00852276 0.0061524636 0.022325974
0002e0 ee 49 f6 3c 49 67 39 3e 4d 77 c7 3d fc e9 2a 3e
       0.03006455 0.18105806 0.09739552 0.1669082
0002f0 79 78 1d 3e fe 05 e3 3d 1e e0 90 bd e0 ab 59 bd
       0.15377988 0.11085127 -0.07073997 -0.05314243
000300 78 0f 91 bd de 1e 34 bd 26 5f 06 bb 4d 19 e7 bd
       -0.070830286 -0.04397475 -0.002050349 -0.112841226
000310 0a 84 04 be 1e ca 8b bc 2a 7a 11 bc e1 8c 44 3c
       -0.12940994 -0.01706415 -0.008879224 0.011996479
000320 9f 32 f5 3d 25 2e 97 3d a7 b2 23 bc b6 22 3b be
       0.11972546 0.07381848 -0.0099913245 -0.1827496
000330 23 28 f2 3d 27 06 bc 3c a9 64 69 bd 02 83 8e 3d
       0.11824062 0.022952152 -0.056980763 0.069585815
000340 a3 3f b1 3b 8c 4a 9c bd 2f cf cc 39 fc 9a 9b 3c
       0.0054091974 -0.07631406 0.00039064276 0.0189948
000350 91 2e 41 3d cb 48 95 3d ac af c0 bd 8e f4 e9 bd
       0.04716355 0.07289275 -0.09408507 -0.11423598
000360 1b af c3 bd 82 93 26 be 7e 43 bd 3d 8c ef 11 3c
       -0.09554883 -0.16267207 0.09241389 0.00890721
000370 37 48 20 bd fb bb 60 bd e0 10 bf 3c c2 2c a3 3d
       -0.03913137 -0.054866772 0.023323476 0.07967521
000380 9e 53 d7 3d c3 ea a2 bd 7f 14 e5 bd 63 cf 2f bd
       0.105139956 -0.079549335 -0.1118555 -0.04292239
000390 5c c6 94 3c 1c c7 8b bd d8 83 07 be a0 67 9a be
       0.018160991 -0.068250865 -0.13233888 -0.30157185
0003a0 7c 2f 1a 3e 70 8e 89 3d f8 9e 3c be f9 69 0d be
       0.15057176 0.06716621 -0.18420017 -0.13809957
0003b0 d9 a4 2a bd 9a fe 67 3e e1 f4 dd bd bb f2 1a 3e
       -0.041661117 0.22655717 -0.108377226 0.15131657
0003c0 ef 97 63 bd a8 cd 9c bd aa 8d 26 3d e6 12 a5 3d
       -0.055564817 -0.07656413 0.040662445 0.08060245
0003d0 c3 15 c4 bd b0 8a 8b 3d ac 07 06 bc fa f2 b0 3c
       -0.09574463 0.06813562 -0.00818054 0.021600235
0003e0 a7 18 28 3e f6 5a a5 3d a3 43 b6 3b 55 71 b6 3d
       0.16415654 0.0807399 0.005562262 0.08908335
0003f0 1a 98 72 bd 31 7a 82 3d 20 c6 43 be cf 6e c1 bd
       -0.059227087 0.063709624 -0.19118547 -0.09444963

body.0.bias f4 [128]
000000 69 20 b9 3d 82 66 3c be 2e 46 b4 3c 99 e7 a0 bd
       0.09039385 -0.18398479 0.02200612 -0.07856674
000010 f4 1e e2 3d 36 72 08 3e 87 5a 43 be 2b 2e 6d bd
       0.1104106 0.13324818 -0.19077502 -0.057905357
000020 4e be 19 3e 1f 58 04 3e 25 fb a1 bd 3c b7 86 3e
       0.15014002 0.1292424 -0.0790923 0.26311672
000030 fa bf f0 3c c0 16 63 be 45 d4 fb bc e5 92 17 be
       0.029388417 -0.22176647 -0.030740866 -0.1480213
000040 ef da 20 be dd f8 64 3e 61 71 60 3c 91 c6 35 be
       -0.15708517 0.22360559 0.013698907 -0.17751528
000050 c5 38 32 be 18 7a 98 bd e8 ed 08 3c 36 3e 43 be
       -0.17404468 -0.074451625 0.0083575025 -0.190667
000060 06 d5 3d bd 0b d7 3e be d1 c3 ca bc 6d 40 05 be
       -0.046345733 -0.1863672 -0.024751576 -0.13012858
000070 ed 38 48 bd ee 8e 2d be e8 b0 de bd a2 90 94 3d
       -0.048882414 -0.16949055 -0.10873586 0.07254149
000080 51 b3 6f be 97 84 35 3d db e8 2a 3c 08 03 bd bd
       -0.23408248 0.0443159 0.010431494 -0.09229094
000090 3c 80 06 be c0 a7 1a be 01 da 33 bd 35 25 11 be
       -0.13134855 -0.15103054 -0.043909077 -0.1417435
0000a0 0e e6 1d bd dc 55 49 3c d2 6d 62 3d ff 65 68 3d
       -0.038549475 0.012288537 0.055280514 0.056737896
0000b0 df 0e 9e be 90 e3 a7 3c 33 e0 97 be b9 d6 d5 be
       -0.3087072 0.020494252 -0.29663238 -0.41765383
0000c0 5b 26 8c bc 90 71 18 3e ba 28 24 be cf 6f 95 be
       -0.017108133 0.1488707 -0.16031161 -0.29186866
0000d0 d3 c7 03 be 88 59 91 3d 49 9a 74 be c6 b7 7c bd
       -0.12869196 0.07097155 -0.2388698 -0.061698698
0000e0 ea f7 3d 3e 79 ed 3b be b9 5c 51 be 4f fa 3a be
       0.18551603 -0.18352307 -0.20445527 -0.18259548
0000f0 66 97 5b 3e 5c 90 81 bd 3d 55 c8 3d a2 be cb 3d
       0.21444473 -0.063263625 0.09781883 0.0994847
000100 87 6a 25 3e 19 e9 c2 bd fb c6 9f bd d5 90 66 3d
       0.16153918 -0.09517116 -0.078016244 0.056290466
000110 0a be dd 3d c9 4f bb bd e8 02 40 3c 6a 0b a4 3c
       0.10827263 -0.09146077 0.011719443 0.020024974
000120 7d 81 55 3e f5 97 41 bd f6 c1 9a ba db 6c ce 3d
       0.20850177 -0.04726406 -0.0011807072 0.10079356
000130 fc ae 10 3d 37 b9 21 be 10 06 27 be 83 fe a1 bd
       0.035323128 -0.1579331 -0.16310906 -0.079098724
000140 27 ad 24 be 56 2b 93 bd 31 b1 3c bd f1 e1 0a be
       -0.16081677 -0.07186 -0.04606742 -0.13562752
000150 a8 05 9f bd 34 fa 5d bd 74 c1 18 be 1e 9d 5e bd
       -0.07764751 -0.05419369 -0.14917547 -0.054349057
000160 66 60 e5 bd 3f 27 25 be e9 05 d0 bd 8a 7e 40 be
       -0.11200027 -0.16128252 -0.10157377 -0.18798271
000170 0d 2f 40 be 6a de 6c 3e 48 00 19 be 51 34 6e bc
       -0.18767948 0.23131719 -0.14941514 -0.01453884
000180 7e 37 2e be 41 f7 0f be 80 63 9f bc aa a5 0f be
       -0.17013356 -0.14059164 -0.019456625 -0.1402804
000190 a6 40 39 be ef 2d 1b be 2f 73 86 bc 36 b4 84 bc
       -0.18091068 -0.15154241 -0.016412346 -0.016199213
0001a0 80 ac 45 3d 26 65 b9 bd 2c 37 10 be 96 8b 03 be
       0.048260212 -0.09052496 -0.14083546 -0.12846217
0001b0 34 ab ce bd 0c fa 60 3c a5 bd 14 3e ac 62 5c 3c
       -0.10091248 0.013731491 0.14525469 0.01345126
0001c0 78 78 52 be 30 ff 89 3d 86 82 31 be 60 f3 8f 3d
       -0.20553768 0.06738126 -0.17334947 0.07028842
0001d0 07 17 49 3e 9e 6d 2a 3e a0 1f e9 bd d9 25 99 bc
       0.1963769 0.16643378 -0.11382985 -0.018694805
0001e0 75 ea 84 3d f2 ac fe bb 3e f0 6c be 45 b1 a5 3b
       0.06490032 -0.0077720815 -0.2313852 0.0050565326
0001f0 66 2d 09 bc 76 2b 13 3a e0 6b 52 bc f3 5d dc bd
       -0.00837264 0.0005614081 -0.012843102 -0.10760107

body.2.weight f4 [128]
000000 ea 91 8b 3f 1c c3 78 3f 4b 7d 83 3f 8a 2a 82 3f
       1.0903904 0.97172713 1.0272611 1.0169232
000010 c4 0f 6b 3f 09 fb 6d 3f f0 05 6b 3f 8c 88 72 3f
       0.9182093 0.92961174 0.91805935 0.94739604
000020 3b ff 80 3f b9 9f 6a 3f 6b 4c 83 3f b2 db 7d 3f
       1.007789 0.9164997 1.0257696 0.99163353
000030 3d 81 75 3f 65 85 81 3f 3a 94 7f 3f 7c 96 84 3f
       0.95900327 1.0118834 0.9983555 1.0358424
000040 ff ca 77 3f 93 96 78 3f 86 7f 76 3f 23 f6 6a 3f
       0.9679412 0.9710476 0.96288335 0.91781825
000050 40 6a 78 3f 88 6c 7c 3f 07 a1 80 3f 46 b0 6e 3f
       0.97037125 0.98603106 1.0049142 0.9323772
000060 10 18 70 3f e6 b3 74 3f 56 b7 79 3f a1 42 80 3f
       0.93786716 0.95587003 0.97545373 1.0020334
000070 e2 80 88 3f 57 ba 7f 3f 6f 46 81 3f e7 48 82 3f
       1.0664332 0.9989371 1.009962 1.0178498
000080 80 a7 85 3f 9f 56 87 3f 51 0c 7b 3f f7 d5 70 3f
       1.0441742 1.057331 0.9806567 0.94076484
000090 90 3b 81 3f c7 2d 7a 3f 61 e3 7b 3f 20 c2 79 3f
       1.0096302 0.977261 0.9839383 0.97561836
0000a0 d8 19 75 3f 9c 6b 7b 3f cf 32 8a 3f 93 11 6e 3f
       0.9574256 0.98211074 1.0796756 0.92995566
0000b0 54 f6 80 3f e4 91 79 3f 0a 73 86 3f c2 48 88 3f
       1.0075173 0.97488236 1.0503857 1.0647204
0000c0 f0 97 7e 3f f5 0f 75 3f 21 32 7e 3f d8 d7 81 3f
       0.9945059 0.95727473 0.9929524 1.0143995
0000d0 7d 2a 7b 3f 5b 00 86 3f 0c cb 77 3f 63 40 7a 3f
       0.98111707 1.0468858 0.967942 0.97754496
0000e0 94 67 80 3f cc f9 78 3f 78 ea 76 3f c1 3f 79 3f
       1.003161 0.9725616 0.9645152 0.97362906
0000f0 f1 84 82 3f a6 9f 76 3f 1f 51 83 3f f5 4f 79 3f
       1.019682 0.96337354 1.0259131 0.9738763
000100 a3 5e 88 3f 1e e7 80 3f c1 56 77 3f f4 85 70 3f
       1.0653881 1.0070531 0.9661675 0.93954396
000110 44 df 79 3f 8b b4 76 3f cd fe 82 3f 2f 5b 7e 3f
       0.976063 0.96369237 1.0234009 0.99357885
000120 13 e9 73 3f a0 91 76 3f e9 84 7a 3f 99 cf 65 3f
       0.9527752 0.96315956 0.97859055 0.89769894
000130 25 6c 81 3f 51 2b 7f 3f 86 96 76 3f 0b 19 83 3f
       1.0111128 0.9967547 0.9632343 1.0242018
000140 93 8b 71 3f 25 d2 6c 3f e3 9b 84 3f 38 43 80 3f
       0.943536 0.92508155 1.0360073 1.0020514
000150 b7 ce 66 3f 85 92 7b 3f e9 bd 7f 3f b1 90 85 3f
       0.9015917 0.98270446 0.99899155 1.0434781
000160 88 08 7b 3f 5b 0e 67 3f 92 31 7f 3f 0d ec 77 3f
       0.9805989 0.9025628 0.99685013 0.9684456
000170 14 04 8a 3f 20 25 7d 3f 98 e5 84 3f df cc 81 3f
       1.0782495 0.98884773 1.0382566 1.0140647
000180 e3 e1 7b 3f 90 ca 82 3f 31 d8 84 3f 77 7d 85 3f
       0.9839155 1.0218067 1.0378476 1.0428914
000190 af ca 7e 3f 05 98 74 3f bc e9 6f 3f 26 82 77 3f
       0.9952802 0.95544463 0.93716025 0.96682966
0001a0 72 6f 81 3f 0d 6f 85 3f c8 83 6f 3f 8a f2 88 3f
       1.0112135 1.0424515 0.9356046 1.0699017
0001b0 bc ee 82 3f cf a9 7a 3f 58 3f 75 3f ee 86 8d 3f
       1.0229106 0.9791536 0.9579978 1.1056802
0001c0 be 6d 85 3f dc 78 74 3f c2 00 80 3f 13 1a 7a 3f
       1.0424116 0.95496917 1.0000231 0.97696036
0001d0 cc 80 6f 3f b2 3f 71 3f cf 0a 81 3f 5c 7f 72 3f
       0.93555903 0.94237816 1.0081424 0.94725585
0001e0 d2 28 74 3f 46 41 72 3f 21 09 76 3f a3 da 79 3f
       0.95374787 0.9463085 0.9610768 0.9759924
0001f0 7b 07 80 3f 40 33 87 3f 11 9d 7a 3f 8b 90 80 3f
       1.0002283 1.0562515 0.97895914 1.0044111

body.2.bias f4 [128]
000000 e5 42 bd bd ee e4 b6 3d d7 61 13 be 1b 15 9c 3c
       -0.09241275 0.089303836 -0.14392792 0.019053033
000010 4e 13 0e 3e d0 a8 cc 3d 15 e5 1d be 38 58 41 3e
       0.13874552 0.09993136 -0.15419419 0.18881309
000020 81 58 01 be cb 60 1f 3e dd 10 05 be 62 29 33 3d
       -0.12631418 0.15564267 -0.12994714 0.043740638
000030 03 cf 21 3a 21 5d 4d be 50 e3 85 3c 00 88 e2 3d
       0.000617251 -0.20055057 0.016343743 0.11061096
000040 da a5 15 be e5 80 88 3d c4 b7 d9 3d d8 7b 31 3e
       -0.14614049 0.0666521 0.10630754 0.17332399
000050 52 e2 04 be 20 35 c9 3d 5a e6 f4 bd 36 bc dc 3c
       -0.1297696 0.09824586 -0.119579986 0.026945215
000060 d6 7a 2a be 32 97 cd bd 3f 5e 18 bd f7 a1 1c be
       -0.1664842 -0.10038604 -0.037199255 -0.1529616
000070 31 72 1e 3e 1c 1c c4 bc 68 82 4b 3e f9 e7 ff 3d
       0.15473248 -0.023939185 0.19873965 0.12495417
000080 a6 4d 89 bd 1b 68 03 3e 55 ea 4f be 71 85 2f be
       -0.067042634 0.12832682 -0.20304234 -0.17140748
000090 13 d3 2a be 75 22 22 be 64 61 54 3e 94 85 02 bb
       -0.16682081 -0.15833457 0.20740277 -0.0019916045
0000a0 7b 29 0b be 44 0f 0a be 50 be bb 3d 86 b7 a2 3d
       -0.13590042 -0.13482386 0.091671586 0.079451606
0000b0 eb 98 38 3c cb 45 02 3e a0 68 c4 bc 98 f9 c0 bd
       0.011266927 0.12721936 -0.02397567 -0.09422606
0000c0 e3 86 c1 bc dd 30 02 3e c1 79 91 3d a7 ec 18 be
       -0.02362389 0.12713952 0.07103301 -0.14934026
0000d0 25 71 74 3e 1c fd 33 bd bf 25 46 3e 2a 15 39 bc
       0.23871286 -0.043942556 0.19350336 -0.01129655
0000e0 17 3b 79 bd dc c8 dd bd 13 f5 b3 3d 99 7c 64 3e
       -0.060847368 -0.108293265 0.087869786 0.22313155
0000f0 d7 38 f3 3d 99 75 7c 3d 79 74 54 3e ea 2d 1a 3e
       0.11876076 0.061635587 0.20747556 0.15056577
000100 70 84 1e be 6d 7e b7 bd 26 b3 e9 bc c6 7d a1 bd
       -0.15480208 -0.08959661 -0.028527807 -0.078853175
000110 dc fd 40 be 41 8e a0 bc 16 40 01 be d1 13 65 3e
       -0.1884684 -0.019599082 -0.12622103 0.2237084
000120 0b ad 3b be 1f dc 26 3e 41 e3 dd 3c 7b f0 a6 bc
       -0.1832773 0.16294907 0.027085902 -0.020378342
000130 37 57 e0 bd 09 ba 16 be 86 4b 56 3e 65 27 30 be
       -0.10954135 -0.14719404 0.20927247 -0.17202528
000140 3e 87 02 3e 4e 7a e9 3d ba bb 25 3e 63 b1 74 bd
       0.12746903 0.11400281 0.16184893 -0.05973948
000150 37 18 9b bd 5b 35 aa 3d 2d f3 83 bd 8f bf 3d 3e
       -0.07572978 0.08310958 -0.064428665 0.18530105
000160 f2 7b 99 3d 6b 24 1c be fc ac 99 3c 71 35 54 be
       0.07494344 -0.15248267 0.018759243 -0.20723511
000170 82 73 0b 3e 5e 32 28 be 67 fa 1e be 96 ea 1f be
       0.13618281 -0.16425464 -0.15525208 -0.15616831
000180 c6 fb d0 bd 80 51 0b be 5f d1 f6 3d ad 23 00 3e
       -0.10204272 -0.13605309 0.12051653 0.12513609
000190 3a 37 f1 bd ff 57 a1 3d 8b b6 d0 3d b5 87 86 3e
       -0.11778112 0.07878112 0.10191067 0.2627541
0001a0 c5 54 b7 bd d6 21 15 3d 72 23 1e 3e c9 d9 65 3d
       -0.089517154 0.03640922 0.15443209 0.0561159
0001b0 51 69 20 be 6d d5 29 be a3 da 84 3d 96 38 11 3e
       -0.15665175 -0.16585322 0.06487014 0.14181742
0001c0 2f ef 53 be 15 fa 79 3e 71 90 04 3e a9 58 2a 3e
       -0.2069671 0.24411805 0.12945725 0.16635384
0001d0 49 16 02 be 7e b5 97 3d 8a 39 84 bd 65 a3 29 bd
       -0.12703814 0.07407664 -0.06456287 -0.04141559
0001e0 9e b1 5c 3e 62 58 23 3e 41 2b d4 bd 85 90 44 3e
       0.2155213 0.15951684 -0.103598125 0.19195755
0001f0 cd 0f f3 bd 36 b6 ff 3d 8c 6a 5c be 23 41 e8 bd
       -0.11868248 0.12485926 -0.2152502 -0.11340549

body.2.running_mean f4 [128]
000000 29 f2 ae 3e 36 d9 17 3e 09 7c 79 3e 17 f2 56 3e
       0.3416913 0.14828953 0.24363722 0.20990787
000010 20 5e 9c 3e 36 1e 91 3e ed 6b 17 3e bd 06 50 3e
       0.30540562 0.28343362 0.14787264 0.2031507
000020 ca 67 d1 3e f0 ea 9c 3e b7 93 31 3e 23 39 b6 3e
       0.40899497 0.30647993 0.17341505 0.35590467
000030 4d db 97 3e bc 30 03 3e 8b 44 72 3e 20 ab 54 3e
       0.296595 0.1281156 0.2365896 0.20768404
000040 e1 11 65 3e 30 67 cf 3e 26 2b 8d 3e 42 9f 13 3e
       0.22370102 0.40508413 0.27571982 0.14416221
000050 83 5d 2c 3e 36 15 38 3e 56 c4 a6 3e fe aa 2c 3e
       0.16832547 0.17976841 0.32571667 0.16862103
000060 e2 78 76 3e 58 20 4e 3e 19 28 7d 3e 95 25 8f 3e
       0.2406955 0.20129526 0.24722327 0.2795836
000070 5a f3 80 3e 58 03 4a 3e 75 13 19 3e 6d 1f 73 3e
       0.25185663 0.19727838 0.14948829 0.23742457
000080 3f 12 e0 3d 5e 4c ae 3e db fa a4 3e 01 8a 7a 3e
       0.1094098 0.3404264 0.32222638 0.24466707
000090 71 35 0a 3e 6a e7 31 3e 08 b3 86 3e 62 53 37 3e
       0.13496949 0.17373434 0.26308465 0.17902902
0000a0 1c 8e 52 3e 3f e4 98 3e 3d 0c d4 3e ec d0 a1 3e
       0.20562023 0.29861638 0.41415587 0.31604707
0000b0 97 cb f6 3d 3d 01 8a 3e 78 26 c0 3d ea 63 cb 3d
       0.120505504 0.2695407 0.09382337 0.099311665
0000c0 8a 57 57 3e 3c ec 9c 3e c2 26 4e 3e 31 65 09 3e
       0.21029487 0.30648983 0.20131972 0.13417508
0000d0 44 09 fc 3d 5a 6c aa 3e 26 d0 df 3d ed 87 6b 3e
       0.12306455 0.3328579 0.10928373 0.2300107
0000e0 52 a2 d6 3e a1 bb 4d 3e 6b b0 f5 3d e3 df f8 3d
       0.41920716 0.20091106 0.1199654 0.12152078
0000f0 c5 59 cc 3e 19 8f 74 3e 66 49 8d 3e 5a d2 ae 3e
       0.3991224 0.23882712 0.2759506 0.3414486
000100 41 87 98 3e e7 02 4d 3e f4 81 32 3e 8b f7 87 3e
       0.2979069 0.20020638 0.17432386 0.26556048
000110 c8 54 91 3e b9 e6 3a 3e 68 d4 7d 3e 36 16 73 3e
       0.28384995 0.18252076 0.24788058 0.23738942
000120 c7 c6 bc 3e 49 8a 2e 3e f8 c7 8a 3e 6e 54 aa 3e
       0.36870405 0.17044939 0.2710569 0.3326754
000130 59 69 b1 3e fa 06 9b 3e 6e a6 46 3e a7 06 2e 3e
       0.34650686 0.3027876 0.19399425 0.16994725
000140 71 c8 29 3e 4e 8e 4b 3e 6a f7 64 3e a5 8f 06 3e
       0.16580369 0.19878504 0.22360006 0.13140734
000150 1d f8 63 3e 67 36 51 3e 72 72 36 3e e7 11 6d 3e
       0.22262616 0.20430909 0.17817095 0.2315136
000160 89 d2 41 3e 80 d3 3e 3e 5f 64 26 3e 3c e1 43 3e
       0.18927969 0.18635368 0.16249226 0.19128889
000170 19 b3 0a 3e 0a 59 c9 3e 02 3b 5e 3e b2 ab 8f 3e
       0.13544883 0.39325744 0.21702197 0.2806068
000180 86 4b 98 3e 05 b2 a9 3e ea 5b 62 3e 01 a7 3a 3e
       0.2974512 0.3314363 0.22105375 0.1822777
000190 37 79 64 3e d8 80 57 3e 84 77 97 3e 4f 9a 60 3e
       0.22311865 0.21045244 0.2958337 0.21933864
0001a0 6d 82 92 3e 03 4a 3e 3e 39 7b 1d 3e 01 b2 68 3e
       0.28615132 0.1858292 0.15379037 0.22724153
0001b0 16 c4 90 3e 63 27 8a 3e ad 6c aa 3e 07 e0 ac 3e
       0.28274602 0.26983175 0.33286038 0.3376467
0001c0 dc 0e bc 3d 6c 77 89 3e 82 2a f5 3d 0f 50 ad 3e
       0.09182522 0.26848924 0.11970998 0.33850142
0001d0 e0 8d a8 3e 6d 45 c3 3e b6 a1 35 3e 20 25 5e 3e
       0.32920742 0.38138905 0.17737469 0.2169385
0001e0 0b c3 88 3e 10 7b 90 3e d3 38 5c 3e c0 7a 63 3e
       0.26711306 0.2821889 0.21506052 0.22214794
0001f0 e8 4a 93 3e 2c 39 8e 3e bb c1 45 3e cd ab 61 3e
       0.28768086 0.27777994 0.19312184 0.22038193

body.2.running_var f4 [128]
000000 6f 02 49 3e 0d d2 98 3d 56 62 06 3e 04 0d e4 3d
       0.19629835 0.07461939 0.1312345 0.11135295
000010 36 33 1a 3e 94 05 e8 3d 70 8d ce 3d a9 2d a8 3d
       0.15058598 0.11329189 0.10085571 0.08211834
000020 de 5e 9e 3e 62 19 0f 3e 3a fc b3 3d a0 f1 11 3e
       0.30931753 0.13974527 0.08788343 0.14252329
000030 45 ba 2b 3e 4e 10 73 3d 0e 96 e4 3d de 49 f4 3d
       0.16770275 0.05934172 0.11161433 0.119281515
000040 ce c2 39 3e 8e 12 5b 3e e6 93 0f 3e ca 2a a1 3d
       0.18140718 0.21393797 0.14021263 0.078694895
000050 e7 2a ac 3d 06 6f 8a 3d f1 33 83 3e fe 77 e3 3d
       0.084066205 0.06759457 0.25625566 0.11106871
000060 6d 8b 10 3e 35 bd 10 3e 60 dd 1a 3e d1 5a 43 3e
       0.14115687 0.14134677 0.1512351 0.19077612
000070 f7 d5 00 3e 5e e1 01 3e 8b c3 80 3d 3f bd c0 3d
       0.12581621 0.12683627 0.06287297 0.09411096
000080 59 9e 41 3d 6e 21 66 3e 2c 35 89 3e 61 e5 11 3e
       0.047270153 0.2247369 0.2679838 0.14247657
000090 1c 35 68 3d 8b 12 dd 3d d0 f7 05 3e 78 85 a6 3d
       0.056691274 0.107945524 0.13082814 0.08130926
0000a0 be 00 e2 3d 72 c9 66 3e 52 1a 8b 3e cd bb 21 3e
       0.11035298 0.22537783 0.27168518 0.15794297
0000b0 0c c7 6d 3d 72 40 10 3e 6e a1 2b 3d 8a 4b 45 3d
       0.058051154 0.14087084 0.041902 0.048167743
0000c0 70 7b fa 3d d8 ce 0b 3e cb d4 01 3e 86 06 8b 3d
       0.12230575 0.13653123 0.1267883 0.067883536
0000d0 3f cf 35 3d 25 d4 52 3e 8d b4 53 3d 4c 01 f0 3d
       0.0443871 0.20588739 0.05168586 0.11718997
0000e0 59 b5 be 3e 9a e8 05 3e e5 eb 65 3d ec 1c 4c 3d
       0.37247732 0.13077012 0.05613317 0.04983227
0000f0 ea e8 2e 3e e4 c6 f5 3d 67 2e fd 3d 81 2b 3d 3e
       0.17081037 0.12000826 0.12362366 0.18473627
000100 ce 76 f2 3d cd 1a cd 3d c7 ef b8 3d 46 b3 0b 3e
       0.118390664 0.100148775 0.09030109 0.13642606
000110 34 bf 14 3e c3 88 99 3d 05 5a fc 3d 4d 24 dd 3d
       0.14526063 0.07496788 0.12321857 0.107979394
000120 ed d5 64 3e 87 79 b0 3d f3 af 1d 3e ec 89 2d 3e
       0.22347231 0.086169295 0.1539915 0.16947144
000130 8f bf 71 3e d2 fd 7d 3e 03 66 ef 3d 46 0b 9e 3d
       0.2360823 0.24803856 0.11689379 0.07716994
000140 7e 95 b8 3d f9 23 c9 3d 12 a9 c6 3d f8 27 44 3d
       0.09012888 0.09821314 0.09700216 0.04788968
000150 1a 76 0d 3e 80 c9 ce 3d 6e 54 c3 3d a4 ea e6 3d
       0.13814583 0.10097027 0.09537588 0.11275223
000160 98 17 ab 3d c5 09 e9 3d 87 7d 8d 3d db a6 cb 3d
       0.083541095 0.113788165 0.06908708 0.099439345
000170 18 25 82 3d aa d3 52 3e 1b 93 00 3e da 7b 46 3e
       0.06354731 0.20588556 0.12556116 0.19383183
000180 fd cd 79 3e 6d 7f 8b 3e 56 69 0d 3e 4d 67 b7 3d
       0.24394985 0.27245656 0.13809714 0.0895525
000190 65 71 3b 3e ea 79 fd 3d e5 b5 22 3e 27 91 c6 3d
       0.18304975 0.12376769 0.158897 0.09695654
0001a0 e8 76 32 3e a2 17 ca 3d a6 50 ab 3d 36 38 d8 3d
       0.17428172 0.09867789 0.08364992 0.105575964
0001b0 a1 d6 63 3e 60 8d 14 3e 70 63 33 3e 94 f6 36 3e
       0.22249843 0.14507055 0.17518401 0.178675
0001c0 e5 85 0b 3d 7f 38 07 3e 3b fa 73 3d 4d c9 3b 3e
       0.03406324 0.13205145 0.05956481 0.18338509
0001d0 7b 05 17 3e e7 8f 53 3e 01 af b6 3d 06 e8 bf 3d
       0.14748184 0.20660363 0.08920098 0.09370427
0001e0 83 03 f4 3d b3 9d 0e 3e 2d ea 15 3e b2 20 e0 3d
       0.11914732 0.13927345 0.14640112 0.10943736
0001f0 5b a4 3e 3e 4b 09 0e 3e bf cd ae 3d 25 1f 03 3e
       0.18617384 0.13870732 0.08535337 0.1280485

body.4.weight f4 [64, 128]
000000 aa d4 13 be fc 12 c3 3b 90 21 b7 bd 01 a5 83 3c
       -0.14436594 0.005953191 -0.089419484 0.01606989
000010 8f bf f7 3d 0b ed 7e 3d 45 05 23 bd 2e f8 c3 3c
       0.12097084 0.06223778 -0.039799947 0.023922052
000020 e4 99 e7 bd fb be 33 3c 66 03 cd 39 b4 4a 13 bd
       -0.11308649 0.010970826 0.0003910318 -0.035959914
000030 d6 20 8e bc 7f c4 50 bd ac e6 f8 bc 0a 92 90 3d
       -0.017349642 -0.050968643 -0.03038343 0.07059105
000040 84 77 f8 3c 60 04 a9 bc 1f 2d 09 be c6 a3 f7 bc
       0.030330427 -0.020631969 -0.13396119 -0.03022946
000050 41 81 19 bb 3d ac 26 bd 4e 87 e6 bd 1a c8 9a bd
       -0.0023422989 -0.040691603 -0.11256276 -0.075576976
000060 b1 38 00 bc fd 4e de bd aa 25 2c bd da 74 71 bd
       -0.007826016 -0.108549096 -0.042028107 -0.05894933
000070 fd da 0b bd 21 d5 e6 3c b9 60 7a bd a4 c3 0f 3d
       -0.03414439 0.0281778 -0.0611274 0.035098687
000080 cc 09 b4 3d 7e 4f 58 3c 36 3f 86 bc 75 cb 9c bd
       0.08790931 0.013202546 -0.016387563 -0.07655994
000090 28 a9 ee 3c aa 60 97 3d 3c 55 4b 3d 90 c7 d9 bd
       0.029133394 0.07391484 0.049641833 -0.10633767
0000a0 9a f0 95 bd ba 80 f1 bd 03 f4 53 3c 51 ec d2 3c
       -0.07321282 -0.11792131 0.012936595 0.02574745
0000b0 bb 70 98 bd fe ed cd bc 07 b3 89 bd 58 14 ac bd
       -0.07443377 -0.025137898 -0.067236 -0.08402318
0000c0 b0 f2 89 bd 28 51 6d 3d 03 ae 23 be 20 ce ae bd
       -0.06735742 0.057938725 -0.15984349 -0.08535409
0000d0 f4 8b b1 3d 99 10 15 bc aa e6 a8 bc 68 3e 71 3b
       0.08669272 -0.0090981955 -0.020617802 0.0036810879
0000e0 63 f4 92 bd 23 88 17 bc 27 95 b8 bb 5a 75 e5 3c
       -0.07175519 -0.009248766 -0.0056330147 0.02801006
0000f0 1c ba 63 3d dd a2 15 bd ac ae 48 3c 08 a1 92 37
       0.05559741 -0.03653227 0.012248676 1.7479542e-05
000100 29 40 d8 bb da 3c 1e be d1 d0 9b bc 9e c8 a4 3a
       -0.0065994454 -0.154529 -0.01902047 0.0012571996
000110 8c a5 6a 3d 58 6b 26 bc da cd d7 bd 26 03 07 3e
       0.057286784 -0.010157429 -0.1053731 0.13184795
000120 30 e4 af 3c 23 84 0f bb 9e 23 a4 bb e0 f0 35 bd
       0.021471113 -0.0021898828 -0.0050091287 -0.04441917
000130 20 7b 34 bc 20 23 fc 3b 67 c0 9e 3b 2a 5e ae 3c
       -0.011015683 0.007694617 0.0048447135 0.021285135
000140 5e 3d 5e 3c b5 14 ec bc 73 2f e3 3b fa 9b c8 bd
       0.013564436 -0.028818468 0.0069331466 -0.09795375
000150 25 ea d5 bc 85 58 a6 3d c3 e8 d5 bd 50 f9 d8 bd
       -0.026112625 0.081223525 -0.104447864 -0.105944276
000160 f1 83 c2 ba c8 06 e3 bc c7 73 21 3c be ff 64 bd
       -0.0014840347 -0.027713194 0.009854264 -0.055907957
000170 c9 78 54 3c ed b1 98 bd fd 88 8e bd 6b 24 33 bd
       0.012968251 -0.07455812 -0.06959722 -0.043735903
000180 04 3f d3 bd ee 43 f2 bc 4d b9 fd 3c 3b 0d e2 3d
       -0.10314754 -0.029573407 0.030972147 0.1103768
000190 ce b7 56 bc 7f ff a3 bd 6b e9 7f 3a 84 b6 cd bb
       -0.013105346 -0.080077164 0.000976226 -0.006277861
0001a0 69 f7 0a 3d ee 0a 4f bc bf 81 97 bc 56 0e 0f bd
       0.033927355 -0.012636883 -0.018494485 -0.03492578
0001b0 42 4f 05 bd 74 81 20 bc 5d de 3c 3d 56 c4 45 3d
       -0.03254629 -0.009796489 0.0461105 0.048282944
0001c0 d2 46 0d be 72 04 73 3d 6f 99 42 3c a0 8d a6 3d
       -0.13796547 0.05933041 0.011877402 0.081324816
0001d0 4e b2 f2 bc 0a 4c 49 3d 08 ed ab bd 7d 23 03 bd
       -0.029626038 0.049144782 -0.083948195 -0.032016266
0001e0 36 3c 49 bc ce de 0e 3e aa cf 6f bb e1 9d d4 bc
       -0.012282422 0.1395218 -0.0036592283 -0.025954189
0001f0 d9 e4 04 bc 3f 2d 3a bd 3b 8f 3c bd 5b 08 46 bd
       -0.008111202 -0.045453306 -0.046035033 -0.048347812
000200 5a 4a f6 3d 40 fb 96 3d f1 eb 28 bc f8 c9 92 3d
       0.120259 0.07372141 -0.010310159 0.07167429
000210 40 d9 13 bd ae 48 9b bd 90 ce 8a bc 1f 51 29 3d
       -0.036095858 -0.07582222 -0.0169442 0.04133713
000220 6f 8c ec 3d 30 26 6c 3d 4e 8d d9 3d 59 21 80 bd
       0.11550223 0.057653606 0.10622655 -0.062563606
000230 54 f3 b0 bb cd bf 34 3d b9 5d f3 3c 86 b7 80 bc
       -0.0054001007 0.044128228 0.029707776 -0.01571251
000240 26 58 0f 3d 79 cc 3a bd 38 5f 63 bd 24 29 11 3d
       0.034996174 -0.045605157 -0.05551073 0.035439625
000250 60 d2 2c 3d c0 aa 8d 3a 32 c3 2a bd 06 44 02 3d
       0.042192817 0.0010808334 -0.04169006 0.031803153
000260 6f 7c 2a bd 5d 32 f0 bd 1e 3f a3 bd 47 74 43 3d
       -0.041622575 -0.11728356 -0.07971023 0.047718313
000270 d7 0d 85 bd b7 9d 29 3d 78 00 06 bc 88 9b 0c bd
       -0.0649678 0.041410174 -0.008178823 -0.034328014
000280 23 47 4e 3d 29 39 99 bd 74 07 a5 3d 5b 7c 96 bd
       0.05036081 -0.074816056 0.08058062 -0.07347938
000290 21 5d 91 3d 9f be a1 3d d5 5e e7 3c 62 20 0b ba
       0.07097841 0.07897686 0.028243462 -0.00053072546
0002a0 f2 be 3b 3d de 98 cc 3c db 0e d6 bd 21 01 b8 bd
       0.045836397 0.024975237 -0.10452052 -0.0898459
0002b0 62 66 01 3c 20 34 5f 3d d8 9e 65 bd bb af 9c 3c
       0.007897945 0.05449307 -0.05605969 0.019126764
0002c0 91 c0 e1 bd bd f5 49 3b ac 30 96 3d 6c 95 b5 bc
       -0.11023057 0.0030816637 0.07333502 -0.022165976
0002d0 1b df b8 3d dc f9 f1 3c 5a 60 8f bd 47 42 29 3c
       0.09026929 0.029538088 -0.070007995 0.010330743
0002e0 aa 81 b0 3d bf f2 dc bc a0 0c b3 bd 6a 04 36 bd
       0.086184815 -0.02697122 -0.087426424 -0.044437803
0002f0 a4 2c 03 be bd 20 43 bd 9f 3c 9b bd a7 70 cb bd
       -0.12809998 -0.047638644 -0.07579922 -0.09933596
000300 93 0b af bd d9 45 a2 3c e9 2b 2d 3d 43 ce aa 3d
       -0.085471295 0.019808697 0.042278204 0.083401226
000310 4c b2 d9 3c 67 b8 be bc f7 67 1a 3d 92 60 68 3c
       0.026574276 -0.02328129 0.037696805 0.01418318
000320 20 fc 88 3d d1 37 b9 3d 68 ef 79 bd 9c ce b3 bd
       0.06688714 0.09043849 -0.06101933 -0.08779642
000330 ea 39 fb 3d 6f 52 79 3d a5 df a5 3c 56 d9 34 3d
       0.122669056 0.06086963 0.020248244 0.04415258
000340 42 06 12 bd b2 8d 87 3c 1b dd b6 bd 66 0c 86 bd
       -0.0356505 0.016547058 -0.08928891 -0.065453336
000350 de f6 73 3c 69 17 6c bd f4 c2 92 3c 09 83 01 be
       0.014890401 -0.057639513 0.017915227 -0.12647642
000360 c1 bd 0b bd 5c 48 b2 3d f7 73 ed 39 dc 41 8c 3d
       -0.03411651 0.08705208 0.00045290563 0.06848499
000370 3b 0e d0 bc 29 13 b9 bc 7e 55 18 3d f3 64 05 3e
       -0.02539741 -0.022592144 0.037190907 0.1302679
000380 eb c1 ae 3c 2f 5e 34 3d 85 d1 81 bd 6c 40 a9 bc
       0.021332702 0.044035133 -0.06338791 -0.020660602
000390 96 b7 12 bd fd 4e eb bd df 38 d7 3b f7 9a 17 3d
       -0.035819612 -0.11489675 0.006568059 0.03701302
0003a0 8b d2 02 bd 5d 80 7f bd 7d f7 87 3d 02 aa 0f bc
       -0.03193907 -0.062378276 0.066390015 -0.00876856
0003b0 c6 7c 8c bc e7 41 80 bd a0 ef dd bc f9 d4 f5 bc
       -0.01714934 -0.0626257 -0.027091801 -0.03000878
0003c0 8d 33 18 3c a8 ac 81 3c fa 78 64 3d 2b 65 57 3d
       0.009289634 0.0158294 0.055779435 0.052586716
0003d0 96 d2 6f bd 5a a6 9b bc a1 11 9f 3d e9 af ee 3c
       -0.05855044 -0.019000221 0.07767034 0.029136615
0003e0 e1 6e fc 3c e3 78 3c 3d fd c1 d5 bb 0c 45 a6 bd
       0.03081459 0.046013724 -0.0065233693 -0.081186384
0003f0 62 3d 15 bd 46 cc c5 bc 9b af 1e 3d 08 0d 36 3d
       -0.036435492 -0.024145257 0.03874169 0.04444602

body.4.bias f4 [64]
000000 bc 65 01 3d cd 5b 4e bd 7d 05 f9 bd 45 a1 0e 3e
       0.031591162 -0.050380517 -0.1215925 0.13928707
000010 9b 30 bd bb 57 27 ba 3d f0 af 28 3e 72 6a 12 be
       -0.0057736165 0.09089535 0.16473365 -0.14298418
000020 c7 66 af 3d ae b2 b9 bd cf 3d d6 bd 15 e6 2d bd
       0.08564525 -0.090672836 -0.10461008 -0.04245575
000030 b9 3e cc bc 61 01 36 3d 70 d7 90 bd 97 81 7f bc
       -0.024932252 0.04443491 -0.070723414 -0.0155948615
000040 de fa 2c 3c fd 3d 2c be 7d 37 6a 3e fa 19 fc 3d
       0.010557858 -0.16820522 0.2287273 0.12309642
000050 d2 5c ae 3d 7a 4b 5a 3e 04 55 13 3e dc 8d e5 bd
       0.08513798 0.21317855 0.143879 -0.11208698
000060 78 b7 87 be 34 47 42 be c4 9e 2c be 2f 64 33 be
       -0.26507163 -0.18972474 -0.1685744 -0.17518686
000070 2a f4 22 3e 18 7d 0c 3d c2 fd c1 bc 27 7c 22 bd
       0.15913454 0.034298986 -0.023680571 -0.039669182
000080 5f 3a 5c 3e 5b df b6 3d 7e 7f 93 bd 05 23 5c be
       0.21506642 0.089293204 -0.072020516 -0.21497734
000090 0d 5b e8 bc f2 83 17 bd e4 81 d1 3d 7d 3d 95 bd
       -0.028363729 -0.036991067 0.10229853 -0.072871186
0000a0 2d 85 7b 3c 97 e5 22 3e 24 cc 00 3e e9 10 90 3d
       0.015351576 0.15907894 0.12577873 0.07034475
0000b0 15 d5 00 3e 54 5e 58 be c5 d4 bf bb c0 53 c5 bd
       0.12581284 -0.21129733 -0.0058542215 -0.09635115
0000c0 6a a9 6a 3e 15 b4 26 bd a8 0a 45 bd 6b 02 e9 3d
       0.22916189 -0.040699083 -0.048105866 0.11377414
0000d0 80 c4 2e 3e 9c 9e 1f 3e f9 13 56 bb 63 18 53 3e
       0.17067146 0.15587848 -0.0032665713 0.20614772
0000e0 7c f9 ab 3c df 21 88 3c fe a2 67 3d e7 46 97 3d
       0.020992987 0.016617713 0.056551926 0.073865704
0000f0 8f b1 9d bd 9f ca 74 3b 11 6f 52 be 10 dd 5f 3e
       -0.07699882 0.0037352217 -0.20550181 0.21861672

body.6.weight f4 [64]
000000 51 03 96 3f f1 03 8f 3f 79 f0 8d 3f 6b 59 90 3f
       1.1719762 1.1173078 1.1089011 1.1277288
000010 c2 64 7f 3f f4 be 91 3f 89 8e 92 3f 81 fb 8d 3f
       0.9976312 1.1386399 1.1449748 1.1092378
000020 f2 01 90 3f d1 94 8c 3f 2b 2d 90 3f 0c 34 92 3f
       1.1250594 1.0982915 1.1263784 1.1422133
000030 62 94 99 3f 30 bb 89 3f b9 9d 8d 3f d1 98 97 3f
       1.1998408 1.076025 1.1063758 1.1843511
000040 1f 19 90 3f dd 4e 94 3f 1d da 8e 3f a1 1d 98 3f
       1.1257666 1.1586567 1.1160313 1.1884042
000050 79 1b 9b 3f 6c b2 92 3f 57 81 97 3f c7 10 90 3f
       1.2117759 1.14607 1.1836346 1.125512
000060 9e 8e 90 3f 48 a1 8f 3f 70 0a 9d 3f 1c 34 9f 3f
       1.1293523 1.1221094 1.226881 1.2437778
000070 30 34 93 3f 5b 32 91 3f 76 d6 94 3f 05 1b a8 3f
       1.1500301 1.1343492 1.1627948 1.3133246
000080 22 96 8b 3f ad 5f 88 3f af 0e 91 3f 75 04 8f 3f
       1.0905192 1.0654198 1.1332606 1.1173235
000090 bc 7e 9e 3f 39 88 8e 3f 18 fe 8a 3f d0 d9 98 3f
       1.2382426 1.1135322 1.0858793 1.1941471
0000a0 a6 ba 8e 3f 6f 18 99 3f 96 91 93 3f a1 c6 90 3f
       1.115071 1.1960582 1.1528804 1.1310617
0000b0 ec fe 88 3f 05 ea 8c 3f 55 dc 8f 3f e7 34 99 3f
       1.0702796 1.1008917 1.1239115 1.196927
0000c0 52 54 90 3f 4d 9a 94 3f 06 c1 8d 3f aa 18 8c 3f
       1.1275733 1.1609589 1.1074531 1.0945027
0000d0 73 64 90 3f 67 38 8f 3f c0 d7 9e 3f 04 a9 88 3f
       1.1280655 1.1189088 1.2409592 1.067658
0000e0 34 e4 94 3f fc 30 9a 3f 7a 16 95 3f ea d8 92 3f
       1.1632142 1.2046199 1.1647484 1.1472447
0000f0 c9 17 91 3f 55 b3 97 3f 7e 12 9a 3f 34 f0 92 3f
       1.1335384 1.1851603 1.2036893 1.1479554

body.6.bias f4 [64]
000000 6b b8 bb 3d 77 e9 49 be b5 c7 69 be 9f 66 34 3e
       0.09166034 -0.19717966 -0.22830088 0.17617272
000010 7b 88 87 3e 24 fd 39 3e 58 de 84 3d 51 63 64 be
       0.26471314 0.18162972 0.06487721 -0.22303511
000020 e5 0f af 3d b1 e3 4b be b6 b4 70 be 3a df 96 be
       0.085479535 -0.19911076 -0.23506436 -0.29467183
000030 dc 24 8f be f3 43 64 3e b5 58 4a be 8f 23 07 be
       -0.2795781 0.22291546 -0.19760402 -0.13197158
000040 ea 63 2d 3e 54 4a 8c be 6c ba 7c 3e 86 51 87 bd
       0.16932645 -0.27400458 0.2468049 -0.06607346
000050 5f fc 6a 3d 13 40 ce 3d 0a 17 fc 3d eb c6 6f be
       0.057369586 0.10070815 0.12309082 -0.23415725
000060 09 be 97 be 35 b3 81 be 4f a4 a4 be 18 79 9b be
       -0.29637173 -0.25332037 -0.32156608 -0.30365825
000070 53 48 e5 3d a5 ea ba 3d e8 21 9c be 23 6d 4c be
       0.111954354 0.09126786 -0.30494618 -0.19963507
000080 09 52 06 3e 03 3b 1f 3e 99 2e 7d be 2f fb 5d be
       0.13117231 0.15549855 -0.24724807 -0.2167785
000090 5d bf 88 be c7 6f 63 be 76 3e 19 3e ab 35 7b be
       -0.267085 -0.22210608 0.14965233 -0.24532191
0000a0 5d 4d 58 be b2 35 50 bd e4 88 a0 3d ce 17 c9 3d
       -0.21123262 -0.050832458 0.0783861 0.098189935
0000b0 1b 68 0f 3e e0 80 7a be 4b e1 62 be f1 8d 6c be
       0.14004557 -0.24463224 -0.22156255 -0.23101021
0000c0 cf b0 ed 3d 08 fd 7d be 95 06 76 be 4d f7 0d 3e
       0.11605989 -0.24803555 -0.24025948 0.13863869
0000d0 61 2c 18 3e 2d a9 45 3e a2 98 2b be 55 57 2b 3e
       0.14860679 0.19302817 -0.16757444 0.16732533
0000e0 b2 da 11 bd 4a 6d 43 3e 00 24 75 3e 89 95 5c 3e
       -0.035608955 0.19084659 0.23939514 0.21541418
0000f0 ab 34 5c be 9f ac be bd c9 84 88 be e7 f6 bb 3d
       -0.21504466 -0.093102686 -0.26663807 0.09177952

body.6.running_mean f4 [64]
000000 ce a9 72 3f c3 6f 10 3f d6 2c b2 3e ea 8c 42 3f
       0.9479035 0.56420535 0.34799832 0.7599627
000010 7a 32 ad 3e e5 cf 89 3f 7f e6 95 3f 57 b1 de 3e
       0.33827573 1.0766569 1.1710967 0.43494675
000020 f7 02 8a 3f d0 0c ec 3e b2 b3 de 3e 99 97 dd 3e
       1.0782155 0.46103525 0.43496472 0.43279722
000030 a7 b0 ce 3e f3 bf c8 3e fe c6 f4 3e 44 35 18 3f
       0.4036915 0.39208946 0.4780807 0.59456277
000040 3a 75 04 3f b5 db ec 3e ea 6f 2a 3f 88 5f 2e 3f
       0.51741374 0.46261373 0.6657702 0.6811452
000050 7d bd 1d 3f 8b 35 60 3f 89 3c 05 3f 1a bd cc 3e
       0.6161726 0.875817 0.52045494 0.39988023
000060 a2 16 7f 3e 36 7a 8e 3e 08 df 8a 3e 9e 45 99 3e
       0.24910977 0.27827615 0.27123284 0.29935926
000070 20 40 86 3f 0c 13 7e 3f e8 4a 3f 3f ae 9e af 3e
       1.0488319 0.99247813 0.7472367 0.3430075
000080 2f 60 7d 3f 82 db 36 3f 5e 3e fb 3e a4 90 87 3e
       0.9897489 0.7142869 0.4907102 0.2647754
000090 b3 bb f5 3e f2 d8 00 3f 2f 2f 7e 3f ef 47 07 3f
       0.47994766 0.5033103 0.99290746 0.52844137
0000a0 20 46 04 3f 77 e5 3c 3f 2d d8 51 3f 0e 3b 79 3f
       0.516695 0.73787636 0.81970483 0.97355735
0000b0 09 95 91 3f 55 1a b7 3e 64 ea 10 3f 83 39 a4 3e
       1.1373607 0.35762277 0.5660765 0.32075128
0000c0 d3 03 9a 3f de 79 03 3f f4 26 e4 3e 36 49 70 3f
       1.2032417 0.5135783 0.4456097 0.9386171
0000d0 97 72 0a 3f 99 d6 27 3f b9 a0 e4 3e 9b 4d 8c 3f
       0.540811 0.65561825 0.44653872 1.0961183
0000e0 5e 07 6d 3f 77 9f 08 3f 60 bd df 3e dc 77 25 3f
       0.92589366 0.53368324 0.4369917 0.64636016
0000f0 04 63 e3 3e 11 dc 3b 3f f5 9a 5f 3e 42 db 98 3f
       0.4441148 0.7338267 0.21836455 1.1941912

body.6.running_var f4 [64]
000000 17 8d 86 3f a0 f7 67 3f ea 9c 2b 3f 5c da 3d 3f
       1.0511807 0.9061222 0.67036307 0.74161315
000010 8e 2b 9c 3e eb 0a 97 3f 9e f1 d4 3f a5 6b 4b 3f
       0.3050198 1.1800207 1.6636236 0.7946113
000020 40 db af 3f 22 5c 16 3f 4e 47 57 3f a5 a6 34 3f
       1.3738785 0.58734334 0.8409318 0.7056678
000030 bd 26 f9 3e 81 df ce 3e f4 cf 50 3f 1d 6a 41 3f
       0.48662367 0.40404895 0.8156731 0.7555254
000040 8e 4c ed 3e 24 98 34 3f d7 30 fa 3e cb 23 7a 3f
       0.4634747 0.7054465 0.48865387 0.97710866
000050 5d 93 32 3f b4 7d 69 3f ad 05 ce 3e 84 ee fb 3e
       0.6975611 0.9120743 0.40238705 0.4920541
000060 d3 4a c1 3e 10 08 b6 3e 1c bc 95 3e 43 ff da 3e
       0.377524 0.35553026 0.2924508 0.42772874
000070 fd 3f a1 3f 5a 10 ad 3f 92 1d 88 3f fa ad a1 3e
       1.2597653 1.3520615 1.0634024 0.31578046
000080 80 36 8e 3f 81 79 2c 3f 84 52 6f 3f 76 79 cd 3e
       1.1110382 0.673729 0.93485284 0.4013173
000090 df 3a 0b 3f a4 b3 3e 3f bd c9 a3 3f 1e 7a 0e 3f
       0.54386705 0.7449286 1.2795941 0.55655086
0000a0 46 9f 62 3f 53 d3 6d 3f 2f 3e 73 3f ea 52 87 3f
       0.8852428 0.9290058 0.9501676 1.0572178
0000b0 26 e6 b3 3f dc e3 41 3f fc d8 93 3f 89 77 9d 3e
       1.4054611 0.7573831 1.1550593 0.3075526
0000c0 c0 ef c2 3f 09 fa 1f 3f 05 1f 72 3f 32 c6 74 3f
       1.5229416 0.624909 0.9457858 0.9561492
0000d0 2d f9 e0 3e 07 41 14 3f 3b 31 01 3f df 31 93 3f
       0.43940106 0.57911724 0.50465745 1.1499594
0000e0 a2 23 a8 3f a4 98 0f 3f c0 a1 c8 3e 33 84 1d 3f
       1.3135874 0.56092286 0.39185905 0.61529845
0000f0 4c 17 4e 3f 02 e7 7d 3f 93 23 7b 3e 07 5d bf 3f
       0.805043 0.99180615 0.24525289 1.4950265

grade_head.0.weight f4 [32, 64]
000000 b5 5c 03 3d 47 6f 03 3c 27 ce f6 3c 9d 8a a9 3d
       0.032070834 0.008022136 0.030127598 0.082783915
000010 07 56 ae 3b 2b 20 c0 3c eb a6 49 bc ff cd b3 3d
       0.005320314 0.023452839 -0.012307863 0.08779525
000020 11 34 7d 3c 6b 51 2c 3d c5 0c 1b 3d 4d e3 bb 3d
       0.015454308 0.042069834 0.037853975 0.091742136
000030 23 2b a0 3d 15 c3 0d 3d 57 53 b6 3d 5e f6 eb bc
       0.07820728 0.034609873 0.089026146 -0.028804
000040 39 86 31 3d 37 a6 8b 3c f1 2e 99 bd 9d ff f8 bd
       0.043340895 0.01704703 -0.074796565 -0.12158129
000050 9a dc b0 bd 52 54 2e 3c 99 55 38 3b ef 91 94 3c
       -0.086358264 0.010640221 0.0028127192 0.018135993
000060 86 01 2b 3c 46 e9 6a 3d 4b 39 ff 3c fc 61 57 3d
       0.010437375 0.057351373 0.03115525 0.05258368
000070 e2 44 ca 3d 75 e3 ee 3c 72 d4 39 3d ae 0f 90 3c
       0.098764196 0.029161194 0.04536862 0.017585602
000080 d5 9e 7d bc 22 aa 0f bc 7c df 35 3d 8c 9f ba 3d
       -0.015479763 -0.00876859 0.044402584 0.091124624
000090 c7 2e 4d 3b c7 98 2e bd 3e 44 72 3d 5b c4 a4 bc
       0.00313084 -0.04262617 0.059147112 -0.02011316
0000a0 f2 85 d0 bc 53 22 fc bd b8 e6 b3 3d 84 4e cc 3c
       -0.025454495 -0.12311234 0.087842405 0.024939783
0000b0 e2 8b be 3d 7b 7d d5 3a ac 7d 67 3c a8 a3 27 3c
       0.09304024 0.0016288006 0.014129084 0.01023189
0000c0 4a 10 8c 3b f7 ad 8c 3d 9c b8 f0 3c 2d 6b 88 3d
       0.0042744027 0.06869119 0.029384904 0.06661067
0000d0 df c1 3e 3d 42 96 fb 3c 08 e5 50 3c 33 80 42 3d
       0.04657161 0.030711297 0.012749918 0.04748554
0000e0 d4 51 08 bb 68 70 6b bd 05 7b ca 3b d4 40 b4 3c
       -0.0020800726 -0.057480246 0.006179216 0.022003569
0000f0 bd 13 7b 3d 62 29 c0 bd e4 9f 0c 3e 35 ac 41 bc
       0.06129812 -0.09382893 0.13732868 -0.0118208425
000100 00 5d 2f 3c a0 c5 a8 3d 5f 03 16 3d 42 1b 1c 3b
       0.010703325 0.08240819 0.03662431 0.0023819958
000110 02 09 28 bd 57 3e 1d 3d b1 02 6c 3d a5 f3 4d bd
       -0.041024216 0.03838953 0.057619754 -0.050281186
000120 c8 45 9d 3b 62 79 35 3d a7 48 d6 3d 74 89 af 3c
       0.0047995783 0.044305213 0.10463076 0.021427847
000130 d1 58 94 3c 96 a4 f1 bc 66 3b 69 3d 6b bb c8 bd
       0.018108757 -0.029497426 0.056941412 -0.09801372
000140 c4 2b bd 3d a6 ed 98 bd 4f 74 0f bd 8d 9e 10 be
       0.09236863 -0.07467203 -0.03502303 -0.14122982
000150 9b 5f a7 bd 75 98 1b 3d 7e ed 66 3d 0b 76 9e 3d
       -0.08172532 0.03798719 0.056378834 0.07737359
000160 fc a9 db 3d 1c ee 5f 3d e7 d9 44 3c e5 da 12 3e
       0.10725781 0.05467044 0.012014843 0.14341314
000170 0f 5d 81 3c 6e 3e 52 bc 99 ce 0a 3d 68 2d ac bc
       0.015791444 -0.012832267 0.033888433 -0.021017745
000180 b3 c8 8a 3d 7a 90 dc 3b 18 f3 a2 3b d4 5e 06 3d
       0.067765616 0.00673109 0.0049728267 0.03280528
000190 36 45 3a bb 8d e9 c7 3c 2b da 8f bb 4d 2c 97 3c
       -0.00284226 0.024403358 -0.0043900213 0.018453741
0001a0 2d dd 11 bd b4 bf 4e bd 7f 38 d4 3d ac 64 56 bc
       -0.03561132 -0.05047579 0.10362338 -0.0130855255
0001b0 c7 6e 1b 3d de 5b bb 3d 7c ac 96 3d c3 76 82 3d
       0.037947442 0.09148382 0.073571175 0.06370308
0001c0 00 ff ac 3d f4 2b 03 bd 04 0a ee 3c 2d 4a a1 3c
       0.08447075 -0.03202434 0.02905751 0.01968869
0001d0 1f 89 59 3d 8f 7d 2f bd 27 e1 45 3d de f2 e6 3d
       0.053109284 -0.04284435 0.048310425 0.11276792
0001e0 90 44 7e 3d 6b f1 d0 bc 56 39 09 bd 97 13 13 bd
       0.062077105 -0.025505742 -0.033501945 -0.035907354
0001f0 40 e3 a4 3d 7b 86 04 be f4 86 11 3e 4d 0d 40 3d
       0.08051157 -0.12941925 0.14211637 0.046887685
000200 58 20 98 be 1e cd 68 be 5e 79 6c 3c 07 b5 33 be
       -0.29712176 -0.22734496 0.014433233 -0.17549525
000210 18 60 5e be 4d 6f 49 be 97 49 02 3c 5a ab 6b 3c
       -0.21716344 -0.19671364 0.0079521155 0.014384115
000220 e2 ca f4 3d e1 30 8a bc fc 17 0f be 9e 52 17 be
       0.11952759 -0.01686901 -0.13973993 -0.1477761
000230 e9 7b 34 3e 8c 5d af 3d e3 ce 7d be 1e 57 2a be
       0.17625393 0.085627645 -0.24785952 -0.16634795
000240 06 47 7c bd 83 4d 25 be 8e 1f 97 be 12 e0 86 3d
       -0.06159117 -0.1614285 -0.29516262 0.06585707
000250 1d db ab bd 6a 05 84 be 5c f3 9c 3c 2e 5f d8 3b
       -0.08391402 -0.2578538 0.019159012 0.006603143
000260 3b 7b a6 bc 84 2d d3 bd 64 2e de 3d 84 65 79 3e
       -0.020322433 -0.10311416 0.10848692 0.24355131
000270 8a b4 c3 bc e4 1e 09 bb ac b4 88 3d 0e 19 14 3e
       -0.023889799 -0.0020922953 0.066750854 0.14462683
000280 2a 73 3b 3e d6 f5 10 be ba 33 88 bd 41 17 9d bd
       0.1830565 -0.14156279 -0.06650491 -0.07670451
000290 06 8b 00 bc de ce 3a be b7 3f 3f 3c 21 80 71 bd
       -0.007845646 -0.18242976 0.011672906 -0.058960084
0002a0 fb c5 fa bd 64 8f 9b bd d6 63 00 be b8 de 4d be
       -0.12244793 -0.07595709 -0.12538084 -0.20104492
0002b0 39 bc 20 bb 74 3c 48 be 78 b7 8f bd 51 29 54 be
       -0.0024526252 -0.19554311 -0.07017416 -0.20718886
0002c0 d8 c8 f8 3d 2d e8 ab 3c c5 72 68 be 7f fb 31 3e
       0.12147683 0.020984733 -0.22700031 0.17381094
0002d0 c6 bf 03 3e 4e 47 78 be 42 e7 2a 3d 52 2f 9e 3d
       0.12866125 -0.2424595 0.04172445 0.077238694
0002e0 43 c9 cb 3d cc ec 40 be 6c 05 13 bd ec 71 5e be
       0.09950497 -0.18840331 -0.035893843 -0.21723145
0002f0 f4 9a bf bd b5 2d 6a be 7b e1 00 be 22 dd 16 be
       -0.09355727 -0.22868998 -0.12586014 -0.14732793
000300 8a 35 8a bd 56 4c 85 3d 27 4a 3c be 5b d1 09 be
       -0.06748493 0.065087005 -0.18387662 -0.13458769
000310 b7 5c 16 3e 07 5e 48 3d aa 4e 24 be 89 86 2a bd
       0.14683805 0.048917796 -0.16045633 -0.04163221
000320 d3 a3 18 be d5 1c 9e bc 88 ef 23 bd 14 58 15 be
       -0.14906244 -0.019300858 -0.040023357 -0.1458438
000330 39 6d 9b be fe 05 4a 3e b8 96 d0 bd 14 99 b3 3d
       -0.30356768 0.19728848 -0.10184997 0.08769432
000340 9f af 90 bb 5f 35 c9 bb 0b 29 46 3e 16 27 8d 3d
       -0.004415467 -0.0061403955 0.19351594 0.06892221
000350 66 f4 17 3e e3 6a 0e be f1 ad 52 be 3a c7 8d bd
       0.14839324 -0.13907962 -0.20574166 -0.06922765
000360 8c 73 0a 3d 4b 77 d0 bc 91 a5 80 be fd 1f 1a be
       0.0338016 -0.025447508 -0.25126317 -0.15051265
000370 60 ad fa bd a7 0f 55 bd a2 42 6c be f2 05 d7 bc
       -0.122401 -0.05201688 -0.23072293 -0.026247952
000380 ea 50 1a bd 35 2c 06 3d a5 fa d1 bb df d2 8a 3d
       -0.037674822 0.032757003 -0.006408053 0.06778502
000390 84 64 85 be 38 39 05 be 4f 31 3f bd 9a 2d 8f be
       -0.2605325 -0.13010108 -0.046677884 -0.2796448
0003a0 65 57 47 bd 11 bd 29 3e 20 ae e1 bd cb 47 73 be
       -0.04866733 0.1657603 -0.1101954 -0.23757856
0003b0 ec 90 10 be 1a bf 3d be 7f a9 d0 bd bb ca 4a 3e
       -0.14117783 -0.1852993 -0.10188579 0.19803898
0003c0 20 60 78 be 30 19 91 be 35 2e 19 be 8c cf 69 be
       -0.24255419 -0.2833953 -0.14959033 -0.22833079
0003d0 8c b2 1b 3d 4d 2f 43 3e f4 a1 73 3e af 0d 04 bd
       0.038012072 0.19061013 0.23792249 -0.032239612
0003e0 2d 64 89 be 00 37 14 3e 10 bc 4b 3e 27 75 15 3e
       -0.2683424 0.14474106 0.19895959 0.14595471
0003f0 0a 5d f7 3c b3 d5 be 3d e0 a7 a2 be 7b c9 8a be
       0.030195732 0.09318104 -0.31768703 -0.27106842

grade_head.0.bias f4 [32]
000000 6d 40 a6 bb b0 a3 0a be 39 b8 3c 3e c6 be c8 3e
       -0.005073598 -0.13539004 0.1842965 0.3920805
000010 a9 57 a8 bd 42 c2 13 3e a1 da 98 3e 46 b4 3f be
       -0.08219845 0.14429572 0.298543 -0.18721113
000020 de 97 63 3e bc 89 fd 3d 04 3c 9d 3e 3b 59 76 3e
       0.22225901 0.12379786 0.3070985 0.24057476
000030 45 04 10 3e 5a 56 ca 3e 01 09 13 be 28 f8 21 3d
       0.14064129 0.39519006 -0.14358903 0.0395433
000040 02 61 9c 3e df 5d bb 3e 18 70 ec 3d 34 86 b8 3d
       0.3054276 0.36595055 0.11544818 0.09009972
000050 c0 00 52 3e 98 b7 42 3e d5 12 64 3e 40 82 8a bc
       0.20508099 0.19015348 0.22272809 -0.016907811
000060 13 1d 4f 3e 8a ff a0 3e b6 b9 4d 3e 20 fc a2 3e
       0.20225935 0.3144496 0.20090374 0.3183298
000070 04 97 3c be 5f dc 30 3e f4 54 ea bc 5e b2 6e 3e
       -0.18416983 0.17271565 -0.028604962 0.23310229

grade_head.2.weight f4 [1, 32]
000000 7c ea bf bd c9 d2 25 be d1 2a 99 3e c6 1f a7 3e
       -0.09370896 -0.1619369 0.2991548 0.3264143
000010 44 d8 32 bd 0a ea cd 3d 4b 74 9b 3e bb e4 96 bd
       -0.04366328 0.10054405 0.30362162 -0.073678456
000020 44 75 cc 3d ff bf ce 3d 84 8c 16 3e 58 b5 01 3e
       0.09983304 0.10095214 0.1470204 0.12666833
000030 3f 90 ba 3e aa b7 62 3e fa 2e b6 bc bb c8 af 3d
       0.36438176 0.22140375 -0.022239197 0.08583208
000040 8a 02 87 3e 40 17 06 3e e8 df 9b 3e 3e c4 97 3d
       0.26369125 0.13094807 0.30444264 0.07410477
000050 59 2c 9c 3e d3 99 9b 3e 96 eb 84 3e eb 6f b8 3d
       0.30502585 0.30390796 0.25960988 0.09005722
000060 d9 ad a8 3e 24 95 61 3e 3f 2b a6 3e 71 fe 87 3e
       0.32945135 0.22029549 0.3245487 0.2656131
000070 4c a5 2b bd 70 ce 7e 3e 77 26 12 be fa 87 97 3e
       -0.041905686 0.24883437 -0.14272486 0.2959593
